stake/profiles/p_5/optimization_guide_model_store/20/63922A0C010C80A5/25AF3F001EBC3938/model.tflite (tflite, 64852 bytes, 5 tensors)

arith.constant f4 [1, 64]
-0.2587437 0.2599732 0.29947007 0.24934776 -0.12618998 -0.0858505 -0.089898415 -0.19498247
0.045730673 0.30045187 0.2665803 0.21607892 0.19914587 -0.062163778 -0.23926747 -0.07626514
0.14759097 0.19793808 0.2871699 -0.14167064 -0.19113493 -0.12295576 0.1761296 0.2808723
-0.1646207 0.28460327 -0.054684434 -0.20387585 -0.2098468 0.20501165 -0.008689425 0.16479187
-0.055427555 -0.19938618 0.1639093 -0.09862232 0.16895814 -0.050433245 -0.3432405 0.04124871
-0.011077431 0.2504154 -0.03872765 0.08009819 -0.3065385 0.25851664 0.19801436 -0.2558
-0.2367567 -0.011568914 -0.039558664 -0.077778794 0.38161328 -0.25480562 -0.2164856 0.17070234
-0.24349418 -0.2084784 -0.30001175 0.2856961 0.41160163 0.09945079 -0.29325607 0.12728208
00000000: 0e7a 84be 351b 853e 2454 993e 0555 7f3e
00000010: f237 01be 63d2 afbd a91c b8bd 7ca9 47be
00000020: 1650 3b3d d4d4 993e 377d 883e cb43 5d3e
00000030: e5ec 4b3e 729f 7ebd 8802 75be e630 9cbd
00000040: 1622 173e 48b0 4a3e ef07 933e 1c12 11be
00000050: e0b8 43be 3bd0 fbbd 515b 343e 7ece 8f3e
00000060: 5492 28be 85b7 913e c9fc 5fbd d5c4 50be
00000070: 14e2 56be 93ee 513e 175e 0ebc 33bf 283e
00000080: 0108 63bd e42b 4cbe d7d7 273e 80fa c9bd
00000090: 5d03 2d3e 1793 4ebd 38bd afbe 68f4 283d
000000a0: 1d7e 35bc 7336 803e e2a0 1ebd 850a a43d
000000b0: 9df2 9cbe 4b5c 843e 47c4 4a3e 38f8 82be
000000c0: 5970 72be 8b8b 3dbc 4408 22bd 7d4a 9fbd
000000d0: d162 c33e e275 82be 67ae 5dbe 98cc 2e3e
000000e0: 8a56 79be 5d7b 55be 249b 99be c246 923e
000000f0: 73bd d23e dbac cb3d a925 96be 3c56 023e

arith.constant1 f4 [64, 128]
-0.13442215 0.084615864 -0.054300103 -0.12892446 -0.20379701 0.14019193 0.0003568113 0.18171643
-0.00091066805 0.022042958 0.05439136 0.05244987 -0.17439514 0.12117511 -0.047421325 -0.055067234
-0.1578219 0.1520271 0.08593159 -0.011413592 0.115088746 -0.20133707 -0.022077164 0.12971334
0.017799163 -0.13791732 -0.07958904 0.04462232 0.13031402 0.15279104 -0.12895308 -0.109506726
-0.036392815 -0.1434191 -0.09738995 0.027459124 -0.11036941 0.04112902 0.12592414 -0.10036447
0.023492195 -0.13292935 0.10705248 -0.1597807 -0.14743431 0.081741706 0.08932004 0.121377245
-0.13525036 -0.047603197 -0.10095951 -0.14961454 -0.08486955 -0.04013013 -0.087088875 -0.0013967525
0.051109165 0.16203627 0.075482674 0.03949251 -0.11043289 -0.16909434 -0.098596 0.050876603
-0.008781789 -0.0493582 0.105033346 0.07047018 -0.083938055 0.0057400228 -0.07669072 0.14009655
-0.16171706 0.102043115 -0.1325507 0.07672345 0.13086942 -0.05825724 0.13944241 0.07478103
-0.08186534 0.006639812 0.12622231 -0.18777166 0.06442412 0.12897637 0.12709023 0.15034023
0.16051124 0.01432307 0.0037525443 -0.15092418 0.185568 -0.029866615 -0.15754034 0.109320074
0.15188107 -0.023069846 0.056607533 0.11594125 0.07764406 0.07875298 -0.12727237 -0.10929641
0.1886682 0.14412874 -0.07473316 0.11725782 -0.034431662 -0.019882051 0.009015236 0.11339715
0.11814941 0.06278036 0.15527526 -0.24567838 -0.11312836 -0.0073928973 -0.01642759 -0.15623151
-0.13211882 -0.092517756 -0.01363163 -0.09748494 0.11517676 0.022118518 -0.12575445 -0.095858455
0.09316674 0.20132108 -0.105934076 -0.0875601 -0.025092203 0.13478522 -0.06054016 0.11923646
0.014596723 -0.1080525 -0.1733565 -0.0030274384 0.0072600427 -0.05632671 -0.04148759 -0.007596081
0.08742787 0.01532505 -0.035475455 -0.105608694 -0.0043884646 0.12021385 0.16529977 0.17072481
-0.07233354 0.052380033 0.008774832 -0.05396905 -0.09177094 -0.030233743 0.012455459 0.024252858
0.13306771 -0.06812835 -0.17141512 0.073891774 0.1517779 -0.025114086 -0.08184813 0.11115252
-0.17220473 -0.090177655 0.0046466407 -0.18575354 0.013064093 -0.12113381 -0.16400433 -0.14507948
-0.107031636 -0.049586847 -0.14936937 0.113818154 0.015569336 -0.01364752 0.010127777 0.11035096
-0.09146016 0.06311915 -0.12851515 -0.0043764706 -0.13568985 -0.052981067 -0.047119822 -0.0085825315
-0.12696783 0.123130836 0.097408846 -0.053333588 -0.10892217 0.097696275 -0.0061548445 -0.09230769
0.11100296 -0.05591304 0.042882144 0.16981992 -0.10495018 -0.14552285 0.14512277 0.11539977
-0.03127725 0.15511866 0.11385357 -0.15524955 0.14195344 0.16604553 -0.13527852 -0.009886145
-0.010390365 -0.041418146 -0.12815754 -0.1096345 -0.0130527895 0.034702275 -0.009386578 0.018356647
-0.09655337 -0.09472648 -0.07746174 -0.05092771 -0.106604114 0.10951701 -0.13906641 0.1611217
-0.17895864 0.12814102 0.08923352 0.13176645 0.180866 0.07336967 -0.09281699 -0.18770064
-0.034333255 0.06765171 -0.1538353 -0.058322087 -0.034160115 -0.15726434 -0.07627084 0.050507028
0.0645438 -0.09705386 -0.17802869 0.11720948 -0.004989768 -0.07908943 -0.16517197 -0.012790486
00000000: f6a5 09be 154b ad3d c969 5ebd c604 04be
00000010: 2ab0 50be 798e 0f3e 6712 bb39 df13 3a3e
00000020: e6b9 6eba 6f93 b43c 7ac9 5e3d add5 563d
00000030: a494 32be a82a f83d dd3c 42bd 2e8e 61bd
00000040: 109c 21be feac 1b3e e7fc af3d 1300 3bbc
00000050: a6b3 eb3d 4e2b 4ebe 2bdb b4bc 93d3 043e
00000060: 8dcf 913c 333a 0dbe 94ff a2bd e5c5 363d
00000070: 0a71 053e 4175 1c3e 470c 04be 1045 e0bd
00000080: a210 15bd 75dc 12be 6274 c7bd f5f1 e03c
00000090: 5b09 e2bd e776 283d 42f2 003e e38b cdbd
000000a0: b472 c03c a21e 08be 553e db3d 8d9d 23be
000000b0: 05f9 16be 3268 a73d 6ded b63d a294 f83d
000000c0: 127f 0abe 92fb 42bd dcc3 cebd 8e34 19be
000000d0: 16d0 adbd 7e5f 24bd a75b b2bd 3d13 b7ba
000000e0: d857 513d d6ec 253e a996 9a3d e6c2 213d
000000f0: a42a e2bd 1127 2dbe b3ec c9bd fc63 503d
00000100: 7ee1 0fbc d32b 4abd b91b d73d ab52 903d
00000110: b7e7 abbd cd16 bc3b 0610 9dbd 7875 0f3e
00000120: 2899 25be fbfb d03d 5fbb 07be 2f21 9d3d
00000130: a202 063e 259f 6ebd fec9 0e3e cc26 993d
00000140: 04a9 a7bd c892 d93b 6c40 013e 3747 40be
00000150: cbf0 833d 6212 043e f123 023e caf2 193e
00000160: 0f5d 243e 4fab 6a3c 3fed 753b de8b 1abe
00000170: 8a05 3e3e d5aa f4bc 4152 21be 34e3 df3d
00000180: b686 1b3e f9fc bcbc 4ddd 673d 9b72 ed3d
00000190: d903 9f3d 3e49 a13d b053 02be ccd6 dfbd
000001a0: 3d32 413e 7c96 133e b30d 99bd de24 f03d
000001b0: 3708 0dbd afdf a2bc a4b4 133c c43c e83d
000001c0: 51f8 f13d fd92 803d 7a00 1f3e 1d93 7bbe
000001d0: d7af e7bd 1e40 f2bb 2793 86bc 27fb 1fbe
000001e0: 284a 07be f379 bdbd 3357 5fbc 2fa6 c7bd
000001f0: cbe1 eb3d e531 b53c c6c5 00be 7051 c4bd
00000200: 34ce be3d 1d27 4e3e f7f3 d8bd b652 b3bd
00000210: 2a8e cdbc 2305 0a3e f5f8 77bd 3f32 f43d
00000220: 1827 6f3c a14a ddbd 5e84 31be fd67 46bb
00000230: a7e5 ed3b d6b6 66bd e4ee 29bd 8ce8 f8bb
00000240: 620d b33d eb15 7b3c b64e 11bd 5f49 d8bd
00000250: 1ccd 8fbb ae32 f63d 5844 293e 7cd2 2e3e
00000260: 9b23 94bd 728c 563d 50c4 0f3c a70e 5dbd
00000270: 67f2 bbbd c1ac f7bc fb11 4c3c eead c63c
00000280: e742 083e e086 8bbd 7287 2fbe 9254 973d
00000290: aa6b 1b3e 0ebc cdbc fe9f a7bd efa3 e33d
000002a0: 7056 30be 10af b8bd d942 983b 2d36 3ebe
000002b0: c70a 563c 0115 f8bd c0f0 27be b78f 14be
000002c0: 6733 dbbd 941b 4bbd 49f4 18be 7e19 e93d
000002d0: 8716 7f3c d999 5fbc faee 253c afff e13d
000002e0: 774f bbbd 9d44 813d 7a99 03be 7f68 8fbb
000002f0: 48f2 0abe ad02 59bd b700 41bd bf9d 0cbc
00000300: db03 02be 052c fc3d 4a7e c73d 5274 5abd
00000310: 9612 dfbd fc14 c83d 94ae c9bb d00b bdbd
00000320: 8555 e33d 1205 65bd 30a5 2f3d 46e5 2d3e
00000330: 1ff0 d6bd f103 15be 109b 143e b756 ec3d
00000340: 931c 00bd 6dd7 1e3e 0f2c e93d bdf9 1ebe
00000350: 3e5c 113e d707 2a3e 7486 0abe 7ff9 21bc
00000360: 593c 2abc 13a6 29bd bb3b 03be 0e88 e0bd
00000370: 5edb 55bc f923 0e3d 29ca 19bc ae60 963c
00000380: c6bd c5bd f5ff c1bd 43a4 9ebd 9399 50bd
00000390: 4253 dabd 744a e03d 6d67 0ebe 16fd 243e
000003a0: ef40 37be 6637 033e 10c0 b63d c9ed 063e
000003b0: f034 393e d642 963d d616 bebd 9934 40be
000003c0: 07a1 0cbd fb8c 8a3d 0087 1dbe 24e3 6ebd
000003d0: 7aeb 0bbd e709 21be e333 9cbd 75e0 4e3d
000003e0: 8a2f 843d 2dc4 c6bd 274d 36be 860b f03d
000003f0: 3581 a3bb a4f9 a1bd d722 29be 308f 51bc

arith.constant2 f4 [128, 12]
-0.07593838 0.1909295 0.15231113 0.03160687 -0.15009318 0.2101985 0.07648209 0.08560183
0.0030485543 0.14756405 -0.034162365 0.10472893 -0.10083799 0.034094606 -0.08768603 0.004580155
0.0042264215 -0.032149944 0.08539499 -0.033680767 0.104822524 -0.0037355844 0.24341026 -0.15960713
0.0467505 -0.15473025 -0.12834473 0.123516545 0.09828565 0.14230524 0.0116265165 -0.0043275775
0.12399439 -0.16228963 -0.025494764 0.22327422 0.01045318 -0.08582965 -0.089907505 -0.060923245
-0.018149264 -0.18288237 -0.022766097 0.07599809 0.24629138 0.021699293 -0.11464495 -0.035314687
0.17992416 0.047534693 -0.053334616 0.12758766 -0.06448701 0.22777228 -0.16483468 0.09020446
0.050405495 -0.09078073 -0.016648263 0.1651321 0.17569107 0.12071458 0.08007138 0.04759231
0.13367583 -0.021598494 -0.059036747 -0.022693938 -0.16088593 0.024254851 -0.192473 0.06886735
-0.17092243 0.054284226 -0.06016246 -0.04085026 -0.038347576 -0.10849192 0.20615387 -0.024111705
-0.2866983 0.104874946 0.09297691 0.14712335 -0.12565568 0.07957726 -0.10943519 0.026775224
0.1520034 -0.086469926 0.00037740555 -0.0850381 -0.1676265 -0.065391205 0.00934055 -0.0006669635
-0.09502285 0.16653961 -0.13253452 -0.12268846 0.01284192 0.09208564 0.092581436 0.08402934
-0.16048637 -0.006078656 0.23153542 0.16393085 -0.034044128 -0.042845033 0.019597638 0.044830985
0.16129418 0.0938527 -0.25573584 0.18590425 0.19623229 -0.02821899 -0.18485093 -0.04694374
-0.06064876 0.08854816 -0.107709095 -0.055952247 0.033428125 0.1288647 -0.13101533 -0.19833954
0.20969991 -0.060281 0.06981265 -0.11497847 0.019868663 -0.09905787 0.013958066 -0.008125247
0.104185715 0.061837956 -0.12814838 0.086537786 -0.09322162 -0.11712681 -0.18823513 0.051748272
-0.12492076 0.108002245 -0.07708919 -0.039391015 0.16336405 0.06829268 -0.036893275 -0.16604042
0.12685812 0.10477729 0.13372472 -0.013162775 0.06823993 -0.11499188 -0.1288568 -0.23526338
0.0064482335 0.09491998 -0.20904127 0.032031436 0.07495943 0.02797414 0.11156325 0.081164815
0.15715742 -0.0066615734 0.21102297 -0.06507922 -0.24958059 0.1820443 0.09934145 -0.17113096
0.21526128 -0.0048796497 0.12899198 0.035188053 -0.018881744 -0.035461538 -0.09209414 -0.013114931
-0.08426161 0.016065525 0.079525456 -0.1537665 0.079238735 -0.08487163 0.09531128 -0.011193613
-0.15185058 -0.025782187 -0.028157432 -0.11881522 0.03960818 -0.05610053 -0.22742578 -0.13382357
0.1598146 -0.06764666 0.0754817 -0.17852776 0.07021234 -0.040597923 0.025721772 -0.1192917
-0.01446231 0.021615406 0.18487251 -0.056011435 0.15216462 0.085527115 -0.08896713 -0.10324898
-0.17503394 -0.107474454 0.026870893 0.08765582 0.18647984 -0.022548666 0.03461799 0.13311763
-0.0098101925 0.006912433 -0.101260476 0.12628777 0.09930842 -0.08082439 -0.21837065 0.12839836
-0.15468349 -0.13911307 -0.012745774 -0.13599041 -0.044310626 0.20510639 -0.16266936 -0.07557082
0.005459006 -0.14393614 0.11417899 0.1006169 -0.092685305 -0.0009104163 -0.08490684 -0.014450137
-0.06984171 0.13064921 -0.24768457 -0.03431509 -0.026026014 0.095294274 0.1424231 -0.0700752
00000000: 9585 9bbd 0683 433e 73f7 1b3e 3576 013d
00000010: 07b2 19be 473e 573e a4a2 9c3d 0350 af3d
00000020: 41ca 473b 081b 173e d6ed 0bbd 1f7c d63d
00000030: 2684 cebd c9a6 0b3d bc94 b3bd 2015 963b
00000040: cb7d 8a3b a9af 03bd 92e3 ae3d d8f4 09bd
00000050: 31ad d63d b5d0 74bb 8a40 793e 0d70 23be
00000060: 747d 3f3d 9b71 1ebe cd6c 03be 3ef6 fc3d
00000070: fd49 c93d 77b8 113e 257d 3e3c 5ace 8dbb
00000080: c5f0 fd3d 412f 26be 65da d0bc ffa1 643e
00000090: d143 2b3c 75c7 afbd 6d21 b8bd a78a 79bd
000000a0: c4ad 94bc 8445 3bbe f77f babc e3a4 9b3d
000000b0: cf33 7c3e b7c2 b13c f9ca eabd 22a6 10bd
000000c0: 0a3e 383e bdb3 423d 6675 5abd 57a6 023e
000000d0: c411 84bd 233d 693e 6cca 28be 1ebd b83d
000000e0: fe75 4e3d 3feb b9bd f061 88bc 6418 293e
000000f0: 5ce8 333e 3539 f73d 77fc a33d 27f0 423d
00000100: 51e2 083e 53ef b0bc 84d0 71bd a3e8 b9bc
00000110: 48bf 24be 1cb2 c63c a417 45be 530a 8d3d
00000120: 4a06 2fbe 2359 5e3d e96c 76bd 9a52 27bd
00000130: 5912 1dbd 0331 debd 001a 533e e985 c5bc
00000140: 1fca 92be adc8 d63d ae6a be3d 81a7 163e
00000150: e2ab 00be 67f9 a23d 8f1f e0bd b757 db3c
00000160: c7a6 1b3e 2517 b1bd 84de c539 7528 aebd
00000170: 48a6 2bbe d3eb 85bd 1b09 193c 2ad7 2eba
00000180: 579b c2bd 5c89 2a3e 21b7 07be 1644 fbbd
00000190: eb66 523c 6597 bc3d 569b bd3d 9317 ac3d
000001a0: 8a56 24be 762f c7bb 9f17 6d3e 7ddd 273e
000001b0: db71 0bbd 467e 2fbd 3a8b a03c b2a0 373d
000001c0: 4d2a 253e d835 c03d cfef 82be af5d 3e3e
000001d0: 1ef1 483e 832b e7bc 9049 3dbe 1448 40bd
000001e0: d66a 78bd bd58 b53d 9696 dcbd 2f2e 65bd
000001f0: eeeb 083d 1cf5 033e e228 06be 8519 4bbe
00000200: 93bb 563e 36e9 76bd eff9 8e3d d579 ebbd
00000210: 9bc3 a23c dade cabd 5fb0 643c c21f 05bc
00000220: 525f d53d cc49 7d3d 5439 03be b93a b13d
00000230: faea bebd 2ee0 efbd b6c0 40be fff5 533d
00000240: 75d6 ffbd 4830 dd3d f0e0 9dbd 7958 21bd
00000250: e848 273e 08dd 8b3d 671d 17bd 8006 2abe
00000260: 18e7 013e 7a95 d63d 22ef 083e aea8 57bc
00000270: 60c1 8b3d dd80 ebbd 09f3 03be e2e8 70be
00000280: b44b d33b 6865 c23d ea0e 56be 6533 033d
00000290: 5484 993d 062a e53c 467b e43d bd39 a63d
000002a0: e0ed 203e 5449 dabb 6816 583e 4148 85bd
000002b0: 0e92 7fbe d269 3a3e 8873 cb3d f43c 2fbe
000002c0: 746d 5c3e 78e5 9fbb 7916 043e 5921 103d
000002d0: e3ad 9abc 1e40 11bd da9b bcbd 02e0 56bc
000002e0: 5a91 acbd d99b 833c 3ede a23d f774 1dbe
000002f0: eb47 a23d 2dd1 adbd 8f32 c33d 6a65 37bc
00000300: b87e 1bbe 2a35 d3bc 6aaa e6bc 6555 f3bd
00000310: 303c 223d abc9 65bd 4ee2 68be 0c09 09be
00000320: 70a6 233e 558a 8abd 2696 9a3d fbcf 36be
00000330: 7dcb 8f3d 024a 26bd 77b6 d23c 354f f4bd
00000340: 53f3 6cbc cb12 b13c 384f 3d3e 3f6c 65bd
00000350: 0bd1 1b3e d728 af3d 6634 b6bd 3474 d3bd
00000360: 193c 33be 911b dcbd 5920 dc3c e584 b33d
00000370: 92f4 3e3e fbb7 b8bc 98cb 0d3d fd4f 083e
00000380: eeba 20bc b181 e23b a761 cfbd 9551 013e
00000390: 3762 cb3d 4287 a5bd 8e9c 5fbe dc7a 033e
000003a0: 5965 1ebe a873 0ebe a7d3 50bc 1241 0bbe
000003b0: 0f7f 35bd 6907 523e cc92 26be e0c4 9abd
000003c0: 76e1 b23b ff63 13be add6 e93d 3c10 ce3d
000003d0: cbd1 bdbd 01a9 6eba a3e3 adbd 44c0 6cbc
000003e0: 2c09 8fbd e8c8 053e 06a1 7dbe fb8d 0cbd
000003f0: 8234 d5bc a529 c33d 5cd7 113e 9683 8fbd

arith.constant29 f4 [64]
-0.04928917 -0.0076871198 -0.02791589 0.011818179 0.021388488 -0.007906291 -0.0038662918 -0.03352179
-0.004121357 -0.10689171 0.037794165 -0.01996121 -0.036485277 0.019953191 -0.08701215 -0.03928551
0.017648095 0.037849568 0.05672952 -0.014146055 -0.025251728 -0.012804631 -0.015335123 -0.09382112
-0.041487474 -0.03698716 -0.0054476736 -0.012931895 -0.02805551 -0.0013329504 -0.01787006 0.042477973
-0.0059616473 -0.01881037 0.02595365 0.026217537 0.02759779 0.0080895955 -0.087158345 -0.007051309
-0.0047310567 0.053111877 -0.016021641 -0.050449897 -0.096471794 0.04624948 0.03425792 -0.0086928625
0.014747354 -0.0019220269 0.014792444 -0.033197675 -0.07168005 0.050358366 -0.071092814 0.06634107
0.012673265 0.0025029369 -0.012989638 0.035691686 -0.03706385 0.011004778 -0.029089173 0.012603416
00000000: 71e3 49bd 3ce4 fbbb ddaf e4bc 09a1 413c
00000010: e936 af3c 6389 01bc 9d61 7dbb 254e 09bd
00000020: 730c 87bb 0aea dabd 0ece 1a3d b185 a3bc
00000030: 9671 15bd e074 a33c 6d33 b2bd d8e9 20bd
00000040: bd92 903c 2608 1b3d 375d 683d dbc4 67bc
00000050: b6dc cebc 84ca 51bc 2b40 7bbc 4a25 c0bd
00000060: c5ee 29bd d97f 17bd 6682 b2bb 4de0 53bc
00000070: abd4 e5bc 65b6 aeba 3b64 92bc 62fd 2d3d
00000080: ec59 c3bb 3418 9abc c09c d43c 29c6 d63c
00000090: c314 e23c 398a 043c 1380 b2bd ab0e e7bb
000000a0: fb06 9bbb d78b 593d d13f 83bc 8da4 4ebd
000000b0: 0193 c5bd 1870 3d3d 0852 0c3d 826c 0ebc
000000c0: e39e 713c 85ec fbba 025c 723c 49fa 07bd
000000d0: fdcc 92bd 9344 4e3d 1c99 91bd d4dd 873d
000000e0: 87a3 4f3c 5008 243b 7ed2 54bc 7231 123d
000000f0: 43d0 17bd 624d 343c 6b4c eebc 8f7e 4e3c

arith.constant30 f4 [128]
-0.03621683 -0.029123563 0.01648562 -0.021967253 -0.076644056 0.0035385806 -0.039193925 -0.0809065
0.010225514 -0.041772317 -0.055982694 -0.009706294 -0.052617095 -0.0054743094 0.005000367 -0.045866296
0.07893176 0.037428956 0.0063040773 0.04385211 -0.015696717 -0.12317794 -0.07847263 -0.10377999
0.018390829 0.019680733 -0.03792274 -0.06643446 0.009261193 -0.07171132 0.019915042 0.0055993097
-0.06583917 -0.10680469 0.022432232 -0.10283929 -0.03659608 0.028275978 -0.026001716 0.011466187
-0.065392084 -0.012349803 0.008728527 0.029191343 0.049693182 -0.009681989 0.03494937 -0.007918484
-0.05115937 -0.026373152 0.007906135 -0.020384757 -0.007846623 0.1093616 -0.015391111 -0.0065592225
0.026232297 -0.010445852 0.005472423 0.06253509 -0.046663746 0.0034396139 -0.060310636 -0.062107246
-0.022468021 -0.044630338 -0.017853998 0.015261739 -0.04624998 0.0033747887 -0.001095075 0.008242274
-0.0043723774 -0.10244211 0.0019267463 -0.049885 -0.013020593 -0.17662524 0.058561105 -0.025605692
0.07431968 0.042708013 -0.027027536 0.015859405 -0.054508016 0.05764551 -0.039457723 -0.014374974
-0.064275354 0.07162036 -0.07955124 -0.03976492 -0.028072717 -0.07492566 -0.021310657 0.07081951
0.050222304 0.014497111 -0.17401342 -0.04509827 -0.10147979 -0.036374435 -0.011596025 0.000654065
0.07001631 0.032571755 0.080412 -0.031696092 -0.017326267 0.014406281 -0.021079484 -0.07433978
-0.08249202 -0.024977695 0.06870556 0.007416233 -0.029342823 0.045957044 -0.019814948 0.00545856
-0.040088553 -0.007633836 -0.042033084 0.04735706 0.0403344 0.02211754 -0.0054860376 -0.14853965
00000000: 1958 14bd 8a94 eebc da0c 873c abf4 b3bc
00000010: 8ff7 9cbd 88e7 673b cf89 20bd 4fb2 a5bd
00000020: ea88 273c 7319 2bbd 1c4e 65bd 2607 1fbc
00000030: 0685 57bd d661 b3bb 1eda a33b 4cde 3bbd
00000040: f9a6 a13d 1b4f 193d 6f92 ce3b 459e 333d
00000050: 6796 80bc b744 fcbd 42b6 a0bd 9a8a d4bd
00000060: 5da8 963c 7d39 a13c e054 1bbd ca0e 88bd
00000070: 42bc 173c 62dd 92bd df24 a33c 6a7a b73b
00000080: b0d6 86bd 6bbc dabd cdc3 b73c 689d d2bd
00000090: c5e5 15bd 06a3 e73c 8d01 d5bc addc 3b3c
000000a0: 49ec 85bd d456 4abc 1902 0f3c af22 ef3c
000000b0: 148b 4b3d 35a1 1ebc 1227 0f3d 87bc 01bc
000000c0: 7d8c 51bd 820c d8bc bc88 013c effd a6bc
000000d0: 1f8f 00bc f9f8 df3d 002b 7cbc bfee d6bb
000000e0: 1de5 d63c 1425 2bbc 0352 b33b 6612 803d
000000f0: 7c22 3fbd 256b 613b 4908 77bd 2b64 7ebd
00000100: db0e b8bc 4dce 36bd 8c42 92bc 5f0c 7a3c
00000110: 9e70 3dbd 8f2b 5d3b 9f88 8fba 9a0a 073c
00000120: 2946 8fbb 2bcd d1bd e18a fc3a 3754 4cbd
00000130: 5354 55bc 3fdd 34be c5dd 6f3d 07c3 d1bc
00000140: eb34 983d 99ee 2e3d da68 ddbc 95eb 813c
00000150: cc43 5fbd b31d 6c3d 6c9e 21bd 0385 6bbc
00000160: cca2 83bd b2ad 923d c3eb a2bd 8ae0 22bd
00000170: c1f8 e5bc a072 99bd b093 aebc d209 913d
00000180: e7b5 4d3d 4a85 6d3c 9330 32be f7b8 38bd
00000190: a3d4 cfbd 5cfd 14bd 41fd 3dbc 8f75 2b3a
000001a0: b664 8f3d f669 053d 0caf a43d c3d3 01bd
000001b0: d1ef 8dbc 5208 6c3c e2ae acbc 743f 98bd
000001c0: 94f1 a8bd 069e ccbc 80b5 8c3d df03 f33b
000001d0: 5c60 f0bc 743d 3c3d f552 a2bc b8dd b23b
000001e0: e533 24bd 4225 fabb e22a 2cbd 7af9 413d
000001f0: af35 253d d82f b53c 38c4 b3bb c71a 18be
